…
            [(None, 1)]          0                                            __________________________________________________________________________________________________C25 (InputLayer)                [(None, 1)]          0                                            __________________________________________________________________________________________________C26 (InputLayer)                [(None, 1)]          0                                            __________________________________________________________________________________________________embedding_26 (Embedding)        (None, 1, 4)         112         C1[0][0]                         __________________________________________________________________________________________________embedding_27 (Embedding)        (None, 1, 4)         372         C2[0][0]                         __________________________________________________________________________________________________embedding_28 (Embedding)        (None, 1, 4)         692         C3[0][0]                         __________________________________________________________________________________________________embedding_29 (Embedding)        (None, 1, 4)         632         C4[0][0]                         __________________________________________________________________________________________________embedding_30 (Embedding)        (None, 1, 4)         52          C5[0][0]                         __________________________________________________________________________________________________embedding_31 (Embedding)        (None, 1, 4)         32          C6[0][0]                         __________________________________________________________________________________________________embedding_32 (Embedding)        (None, 1, 4)         736         C7[0][0]                         __________________________________________________________________________________________________embedding_33 (Embedding)        (None, 1, 4)         80          C8[0][0]                         __________________________________________________________________________________________________embedding_34 (Embedding)        (None, 1, 4)         12          C9[0][0]                         __________________________________________________________________________________________________embedding_35 (Embedding)        (None, 1, 4)         572         C10[0][0]                        __________________________________________________________________________________________________embedding_36 (Embedding)        (None, 1, 4)         696         C11[0][0]                        __________________________________________________________________________________________________embedding_37 (Embedding)        (None, 1, 4)         684         C12[0][0]                        __________________________________________________________________________________________________embedding_38 (Embedding)        (None, 1, 4)         668         C13[0][0]                        __________________________________________________________________________________________________embedding_39 (Embedding)        (None, 1, 4)         60          C14[0][0]                        __________________________________________________________________________________________________embedding_40 (Embedding)        (None, 1, 4)         684         C15[0][0]                        __________________________________________________________________________________________________embedding_41 (Embedding)        (None, 1, 4)         676         C16[0][0]                        __________________________________________________________________________________________________embedding_42 (Embedding)        (None, 1, 4)         40          C17[0][0]                        __________________________________________________________________________________________________embedding_43 (Embedding)        (None, 1, 4)         512         C18[0][0]                        __________________________________________________________________________________________________embedding_44 (Embedding)        (None, 1, 4)         180         C19[0][0]                        __________________________________________________________________________________________________embedding_45 (Embedding)        (None, 1, 4)         20          C20[0][0]                        __________________________________________________________________________________________________embedding_46 (Embedding)        (None, 1, 4)         680         C21[0][0]                        __________________________________________________________________________________________________embedding_47 (Embedding)        (None, 1, 4)         28          C22[0][0]                        __________________________________________________________________________________________________embedding_48 (Embedding)        (None, 1, 4)         44          C23[0][0]                        __________________________________________________________________________________________________embedding_49 (Embedding)        (None, 1, 4)         504         C24[0][0]                        __________________________________________________________________________________________________embedding_50 (Embedding)        (None, 1, 4)         84          C25[0][0]                        __________________________________________________________________________________________________embedding_51 (Embedding)        (None, 1, 4)         364         C26[0][0]                        __________________________________________________________________________________________________I1 (InputLayer)                 [(None, 1)]          0                                            __________________________________________________________________________________________________I2 (InputLayer)                 [(None, 1)]          0          
…
            [(None, 1)]          0                                            __________________________________________________________________________________________________I12 (InputLayer)                [(None, 1)]          0                                            __________________________________________________________________________________________________I13 (InputLayer)                [(None, 1)]          0                                            __________________________________________________________________________________________________flatten_26 (Flatten)            (None, 4)            0           embedding_26[0][0]               __________________________________________________________________________________________________flatten_27 (Flatten)            (None, 4)            0           embedding_27[0][0]               __________________________________________________________________________________________________flatten_28 (Flatten)            (None, 4)            0           embedding_28[0][0]               __________________________________________________________________________________________________flatten_29 (Flatten)            (None, 4)            0           embedding_29[0][0]               __________________________________________________________________________________________________flatten_30 (Flatten)            (None, 4)            0           embedding_30[0][0]               __________________________________________________________________________________________________flatten_31 (Flatten)            (None, 4)            0           embedding_31[0][0]               __________________________________________________________________________________________________flatten_32 (Flatten)            (None, 4)            0           embedding_32[0][0]               __________________________________________________________________________________________________flatten_33 (Flatten)            (None, 4)            0           embedding_33[0][0]               __________________________________________________________________________________________________flatten_34 (Flatten)            (None, 4)            0           embedding_34[0][0]               __________________________________________________________________________________________________flatten_35 (Flatten)            (None, 4)            0           embedding_35[0][0]               __________________________________________________________________________________________________flatten_36 (Flatten)            (None, 4)            0           embedding_36[0][0]               __________________________________________________________________________________________________flatten_37 (Flatten)            (None, 4)            0           embedding_37[0][0]               __________________________________________________________________________________________________flatten_38 (Flatten)            (None, 4)            0           embedding_38[0][0]               __________________________________________________________________________________________________flatten_39 (Flatten)            (None, 4)            0           embedding_39[0][0]               __________________________________________________________________________________________________flatten_40 (Flatten)            (None, 4)            0           embedding_40[0][0]               __________________________________________________________________________________________________flatten_41 (Flatten)            (None, 4)            0           embedding_41[0][0]               __________________________________________________________________________________________________flatten_42 (Flatten)            (None, 4)            0           embedding_42[0][0]               __________________________________________________________________________________________________flatten_43 (Flatten)            (None, 4)            0           embedding_43[0][0]               __________________________________________________________________________________________________flatten_44 (Flatten)            (None, 4)            0           embedding_44[0][0]               __________________________________________________________________________________________________flatten_45 (Flatten)            (None, 4)            0           embedding_45[0][0]               __________________________________________________________________________________________________flatten_46 (Flatten)            (None, 4)            0           embedding_46[0][0]               __________________________________________________________________________________________________flatten_47 (Flatten)            (None, 4)            0           embedding_47[0][0]               __________________________________________________________________________________________________flatten_48 (Flatten)            (None, 4)            0           embedding_48[0][0]               __________________________________________________________________________________________________flatten_49 (Flatten)            (None, 4)            0           embedding_49[0][0]               __________________________________________________________________________________________________flatten_50 (Flatten)            (None, 4)            0           embedding_50[0][0]               __________________________________________________________________________________________________flatten_51 (Flatten)            (None, 4)            0           embedding_51[0][0]               __________________________________________________________________________________________________concatenate_1 (Concatenate)     (None, 13)           0           I1[0][0]                                                                                          I2[0][0]                                                                                          I3[0][0]                                                                                          I4[0][0]                                                                                       
…
                                             flatten_47[0][0]                                                                                  flatten_48[0][0]                                                                                  flatten_49[0][0]                                                                                  flatten_50[0][0]                                                                                  flatten_51[0][0]                 __________________________________________________________________________________________________concatenate_3 (Concatenate)     (None, 117)          0           concatenate_2[0][0]                                                                               concatenate_1[0][0]              __________________________________________________________________________________________________dense_2 (Dense)                 (None, 1024)         120832      concatenate_3[0][0]              __________________________________________________________________________________________________dropout (Dropout)               (None, 1024)         0           dense_2[0][0]                    __________________________________________________________________________________________________dense_3 (Dense)                 (None, 512)          524800      dropout[0][0]                    __________________________________________________________________________________________________embedding (Embedding)           (None, 1, 1)         28          C1[0][0]                         __________________________________________________________________________________________________embedding_1 (Embedding)         (None, 1, 1)         93          C2[0][0]                         __________________________________________________________________________________________________embedding_2 (Embedding)         (None, 1, 1)         173         C3[0][0]                         __________________________________________________________________________________________________embedding_3 (Embedding)         (None, 1, 1)         158         C4[0][0]                         __________________________________________________________________________________________________embedding_4 (Embedding)         (None, 1, 1)         13          C5[0][0]                         __________________________________________________________________________________________________embedding_5 (Embedding)         (None, 1, 1)         8           C6[0][0]                         __________________________________________________________________________________________________embedding_6 (Embedding)         (None, 1, 1)         184         C7[0][0]                         __________________________________________________________________________________________________embedding_7 (Embedding)         (None, 1, 1)         20          C8[0][0]                         __________________________________________________________________________________________________embedding_8 (Embedding)         (None, 1, 1)         3           C9[0][0]                         __________________________________________________________________________________________________embedding_9 (Embedding)         (None, 1, 1)         143         C10[0][0]                        __________________________________________________________________________________________________embedding_10 (Embedding)        (None, 1, 1)         174         C11[0][0]                        __________________________________________________________________________________________________embedding_11 (Embedding)        (None, 1, 1)         171         C12[0][0]                        __________________________________________________________________________________________________embedding_12 (Embedding)        (None, 1, 1)         167         C13[0][0]                        __________________________________________________________________________________________________embedding_13 (Embedding)        (None, 1, 1)         15          C14[0][0]                        __________________________________________________________________________________________________embedding_14 (Embedding)        (None, 1, 1)         171         C15[0][0]                        __________________________________________________________________________________________________embedding_15 (Embedding)        (None, 1, 1)         169         C16[0][0]                        __________________________________________________________________________________________________embedding_16 (Embedding)        (None, 1, 1)         10          C17[0][0]                        __________________________________________________________________________________________________embedding_17 (Embedding)        (None, 1, 1)         128         C18[0][0]                        __________________________________________________________________________________________________embedding_18 (Embedding)        (None, 1, 1)         45          C19[0][0]                        __________________________________________________________________________________________________embedding_19 (Embedding)        (None, 1, 1)         5           C20[0][0]                        __________________________________________________________________________________________________embedding_20 (Embedding)        (None, 1, 1)         170         C21[0][0]                        __________________________________________________________________________________________________embedding_21 (Embedding)        (None, 1, 1)         7           C22[0][0]                        __________________________________________________________________________________________________embedding_22 (Embedding)        (None, 1, 1)         11          C23[0][0]                        __________________________________________________________________________________________________embedding_23 (Embedding)        (None, 1, 1)         126         C24[0][0]                        __________________________________________________________________________________________________embedding_24 (Embedding)        (None, 1, 1)         21          C25[0][0]                        __________________________________________________________________________________________________embedding_25 (Embedding)        (None, 1, 1)         91          C26[0][0]                        __________________________________________________________________________________________________dropout_1 (Dropout)             (None, 512)          0           dense_3[0][0]                    __________________________________________________________________________________________________flatten (Flatten)               (None, 1)            0           embedding[0][0]                  __________________________________________________________________________________________________flatten_1 (Flatten)             (None, 1)            0           embedding_1[0][0]                __________________________________________________________________________________________________flatten_2 (Flatten)             (None, 1)            0           embedding_2[0][0]                __________________________________________________________________________________________________flatten_3 (Flatten)             (None, 1)            0           embedding_3[0][0]                __________________________________________________________________________________________________flatten_4 (Flatten)             (None, 1)            0           embedding_4[0][0]                __________________________________________________________________________________________________flatten_5 (Flatten)             (None, 1)            0           embedding_5[0][0]                __________________________________________________________________________________________________flatten_6 (Flatten)             (None, 1)            0           embedding_6[0][0]                __________________________________________________________________________________________________flatten_7 (Flatten)             (None, 1)            0           embedding_7[0][0]                __________________________________________________________________________________________________flatten_8 (Flatten)             (None, 1)            0           embedding_8[0][0]                __________________________________________________________________________________________________flatten_9 (Flatten)             (None, 1)            0           embedding_9[0][0]                __________________________________________________________________________________________________flatten_10 (Flatten)            (None, 1)            0           embedding_10[0][0]               __________________________________________________________________________________________________flatten_11 (Flatten)            (None, 1)            0           embedding_11[0][0]               __________________________________________________________________________________________________flatten_12 (Flatten)            (None, 1)            0           embedding_12[0][0]               __________________________________________________________________________________________________flatten_13 (Flatten)            (None, 1)            0           embedding_13[0][0]               __________________________________________________________________________________________________flatten_14 (Flatten)            (None, 1)            0           embedding_14[0][0]               __________________________________________________________________________________________________flatten_15 (Flatten)            (None, 1)            0           embedding_15[0][0]               __________________________________________________________________________________________________flatten_16 (Flatten)            (None, 1)            0           embedding_16[0][0]               __________________________________________________________________________________________________flatten_17 (Flatten)            (None, 1)            0           embedding_17[0][0]               __________________________________________________________________________________________________flatten_18 (Flatten)            (None, 1)            0           embedding_18[0][0]               __________________________________________________________________________________________________flatten_19 (Flatten)            (None, 1)            0           embedding_19[0][0]               __________________________________________________________________________________________________flatten_20 (Flatten)            (None, 1)            0           embedding_20[0][0]               __________________________________________________________________________________________________flatten_21 (Flatten)            (None, 1)            0           embedding_21[0][0]               __________________________________________________________________________________________________flatten_22 (Flatten)            (None, 1)            0           embedding_22[0][0]               __________________________________________________________________________________________________flatten_23 (Flatten)            (None, 1)            0           embedding_23[0][0]               __________________________________________________________________________________________________flatten_24 (Flatten)            (None, 1)            0           embedding_24[0][0]               __________________________________________________________________________________________________flatten_25 (Flatten)            (None, 1)            0           embedding_25[0][0]               __________________________________________________________________________________________________dense_4 (Dense)                 (None, 256)          131328      dropout_1[0][0]                  __________________________________________________________________________________________________dense_1 (Dense)                 (None, 1)            14          concatenate_1[0][0]              __________________________________________________________________________________________________add (Add)                       (None, 1)            0           flatten[0][0]                                                                                     flatten_1[0][0]                                                                                   flatten_2[0][0]                                                                                   flatten_3[0][0]                                                                                
…
                                             flatten_21[0][0]                                                                                  flatten_22[0][0]                                                                                  flatten_23[0][0]                                                                                  flatten_24[0][0]                                                                                  flatten_25[0][0]                 __________________________________________________________________________________________________dropout_2 (Dropout)             (None, 256)          0           dense_4[0][0]                    __________________________________________________________________________________________________add_1 (Add)                     (None, 1)            0           dense_1[0][0]                                                                                     add[0][0]                        __________________________________________________________________________________________________dense_5 (Dense)                 (None, 1)            257         dropout_2[0][0]                  __________________________________________________________________________________________________add_2 (Add)                     (None, 1)            0           add_1[0][0]                                                                                       dense_5[0][0]                    __________________________________________________________________________________________________activation (Activation)         (None, 1)            0           add_2[0][0]                      ==================================================================================================Total params: 788,751Trainable params: 788,751Non-trainable params: 0__________________________________________________________________________________________________</code></pre><pre class="line-numbers language-python" data-language="python"><code class="
…
